…
	World size (gpu number): 1
	Require iter number per epoch: 1811
	Total epochs: 221; iters: 400000.
/global/D1/homes/s4nyam/srhat/srhat_env/lib/python3.10/site-packages/torch/functional.py:534: UserWarning: torch.meshgrid: in an upcoming release, it will be required to pass the indexing argument. (Triggered internally at ../aten/src/ATen/native/TensorShape.cpp:3595.)
  return _VF.meshgrid(tensors, **kwargs)  # type: ignore[attr-defined]
2024-11-26 00:08:25,766 INFO: Network [HAT] is created.
2024-11-26 00:08:26,257 INFO: Network: HAT, with parameters: 20,772,507
2024-11-26 00:08:26,257 INFO: HAT(
  (conv_first): Conv2d(3, 180, kernel_size=(3, 3), stride=(1, 1), padding=(1, 1))
  (patch_embed): PatchEmbed(
    (norm): LayerNorm((180,), eps=1e-05, elementwise_affine=True)
  )
  (patch_unembed): PatchUnEmbed()
  (pos_drop): Dropout(p=0.0, inplace=False)
  (layers): ModuleList(
    (0): RHAG(
      (residual_group): AttenBlocks(
        (blocks): ModuleList(
          (0): HAB(
            (norm1): LayerNorm((180,), eps=1e-05, elementwise_affine=True)
            (attn): WindowAttention(
              (qkv): Linear(in_features=180, out_features=540, bias=True)
              (attn_drop): Dropout(p=0.0, inplace=False)
              (proj): Linear(in_features=180, out_features=180, bias=True)
              (proj_drop): Dropout(p=0.0, inplace=False)
              (softmax): Softmax(dim=-1)
            )
            (conv_block): CAB(
              (cab): Sequential(
                (0): Conv2d(180, 60, kernel_size=(3, 3), stride=(1, 1), padding=(1, 1))
                (1): GELU(approximate='none')
                (2): Conv2d(60, 180, kernel_size=(3, 3), stride=(1, 1), padding=(1, 1))
                (3): ChannelAttention(
                  (attention): Sequential(
                    (0): AdaptiveAvgPool2d(output_size=1)
                    (1): Conv2d(180, 6, kernel_size=(1, 1), stride=(1, 1))
                    (2): ReLU(inplace=True)
                    (3): Conv2d(6, 180, kernel_size=(1, 1), stride=(1, 1))
                    (4): Sigmoid()
                  )
                )
              )
            )
            (drop_path): Identity()
            (norm2): LayerNorm((180,), eps=1e-05, elementwise_affine=True)
            (mlp): Mlp(
              (fc1): Linear(in_features=180, out_features=360, bias=True)
              (act): GELU(approximate='none')
              (fc2): Linear(in_features=360, out_features=180, bias=True)
              (drop): Dropout(p=0.0, inplace=False)
            )
          )
          (1-5): 5 x HAB(
            (norm1): LayerNorm((180,), eps=1e-05, elementwise_affine=True)
            (attn): WindowAttention(
              (qkv): Linear(in_features=180, out_features=540, bias=True)
              (attn_drop): Dropout(p=0.0, inplace=False)
              (proj): Linear(in_features=180, out_features=180, bias=True)
              (proj_drop): Dropout(p=0.0, inplace=False)
              (softmax): Softmax(dim=-1)
            )
            (conv_block): CAB(
              (cab): Sequential(
                (0): Conv2d(180, 60, kernel_size=(3, 3), stride=(1, 1), padding=(1, 1))
                (1): GELU(approximate='none')
                (2): Conv2d(60, 180, kernel_size=(3, 3), stride=(1, 1), padding=(1, 1))
                (3): ChannelAttention(
                  (attention): Sequential(
                    (0): AdaptiveAvgPool2d(output_size=1)
                    (1): Conv2d(180, 6, kernel_size=(1, 1), stride=(1, 1))
                    (2): ReLU(inplace=True)
                    (3): Conv2d(6, 180, kernel_size=(1, 1), stride=(1, 1))
                    (4): Sigmoid()
                  )
                )
              )
            )
            (drop_path): DropPath()
            (norm2): LayerNorm((180,), eps=1e-05, elementwise_affine=True)
            (mlp): Mlp(
              (fc1): Linear(in_features=180, out_features=360, bias=True)
              (act): GELU(approximate='none')
              (fc2): Linear(in_features=360, out_features=180, bias=True)
              (drop): Dropout(p=0.0, inplace=False)
            )
          )
        )
        (overlap_attn): OCAB(
          (norm1): LayerNorm((180,), eps=1e-05, elementwise_affine=True)
          (qkv): Linear(in_features=180, out_features=540, bias=True)
          (unfold): Unfold(kernel_size=(24, 24), dilation=1, padding=4, stride=16)
          (softmax): Softmax(dim=-1)
          (proj): Linear(in_features=180, out_features=180, bias=True)
          (norm2): LayerNorm((180,), eps=1e-05, elementwise_affine=True)
          (mlp): Mlp(
            (fc1): Linear(in_features=180, out_features=360, bias=True)
            (act): GELU(approximate='none')
            (fc2): Linear(in_features=360, out_features=180, bias=True)
            (drop): Dropout(p=0.0, inplace=False)
          )
        )
      )
      (conv): Conv2d(180, 180, kernel_size=(3, 3), stride=(1, 1), padding=(1, 1))
      (patch_embed): PatchEmbed()
      (patch_unembed): PatchUnEmbed()
    )
    (1-5): 5 x RHAG(
      (residual_group): AttenBlocks(
        (blocks): ModuleList(
          (0-5): 6 x HAB(
            (norm1): LayerNorm((180,), eps=1e-05, elementwise_affine=True)
            (attn): WindowAttention(
              (qkv): Linear(in_features=180, out_features=540, bias=True)
              (attn_drop): Dropout(p=0.0, inplace=False)
              (proj): Linear(in_features=180, out_features=180, bias=True)
              (proj_drop): Dropout(p=0.0, inplace=False)
              (softmax): Softmax(dim=-1)
            )
            (conv_block): CAB(
              (cab): Sequential(
                (0): Conv2d(180, 60, kernel_size=(3, 3), stride=(1, 1), padding=(1, 1))
                (1): GELU(approximate='none')
                (2): Conv2d(60, 180, kernel_size=(3, 3), stride=(1, 1), padding=(1, 1))
                (3): ChannelAttention(
                  (attention): Sequential(
                    (0): AdaptiveAvgPool2d(output_size=1)
                    (1): Conv2d(180, 6, kernel_size=(1, 1), stride=(1, 1))
                    (2): ReLU(inplace=True)
                    (3): Conv2d(6, 180, kernel_size=(1, 1), stride=(1, 1))
                    (4): Sigmoid()
                  )
                )
              )
            )
            (drop_path): DropPath()
            (norm2): LayerNorm((180,), eps=1e-05, elementwise_affine=True)
            (mlp): Mlp(
              (fc1): Linear(in_features=180, out_features=360, bias=True)
              (act): GELU(approximate='none')
              (fc2): Linear(in_features=360, out_features=180, bias=True)
              (drop): Dropout(p=0.0, inplace=False)
            )
          )
        )
        (overlap_attn): OCAB(
          (norm1): LayerNorm((180,), eps=1e-05, elementwise_affine=True)
          (qkv): Linear(in_features=180, out_features=540, bias=True)
          (unfold): Unfold(kernel_size=(24, 24), dilation=1, padding=4, stride=16)
          (softmax): Softmax(dim=-1)
          (proj): Linear(in_features=180, out_features=180, bias=True)
          (norm2): LayerNorm((180,), eps=1e-05, elementwise_affine=True)
          (mlp): Mlp(
            (fc1): Linear(in_features=180, out_features=360, bias=True)
            (act): GELU(approximate='none')
            (fc2): Linear(in_features=360, out_features=180, bias=True)
            (drop): Dropout(p=0.0, inplace=False)
          )
        )
      )
      (conv): Conv2d(180, 180, kernel_size=(3, 3), stride=(1, 1), padding=(1, 1))
      (patch_embed): PatchEmbed()
      (patch_unembed): PatchUnEmbed()
    )
  )
  (norm): LayerNorm((180,), eps=1e-05, elementwise_affine=True)
  (conv_after_body): Conv2d(180, 180, kernel_size=(3, 3), stride=(1, 1), padding=(1, 1))
  (conv_before_upsample): Sequential(
    (0): Conv2d(180, 64, kernel_size=(3, 3), stride=(1, 1), padding=(1, 1))
    (1): LeakyReLU(negative_slope=0.01, inplace=True)
  )
  (upsample): Upsample(
    (0): Conv2d(64, 256, kernel_size=(3, 3), stride=(1, 1), padding=(1, 1))
    (1): PixelShuffle(upscale_factor=2)
    (2): Conv2d(64, 256, kernel_size=(3, 3), stride=(1, 1), padding=(1, 1))
    (3): PixelShuffle(upscale_factor=2)
  )
  (conv_last): Conv2d(64, 3, kernel_size=(3, 3), stride=(1, 1), padding=(1, 1))
)
/global/D1/homes/s4nyam/srhat/srhat_env/lib/python3.10/site-packages/basicsr/models/base_model.py:290: FutureWarning: You are using `torch.load` with `weights_only=False` (the current default value), which uses the default pickle module implicitly. It is possible to construct malicious pickle data which will execute arbitrary code during 
…
2024-11-26 00:08:26,513 INFO: Loading HAT model from ./experiments/pretrained_models/Real_HAT_GAN_SRx4.pth, with param key: [params_ema].
2024-11-26 00:08:26,717 INFO: Use Exponential Moving Average with decay: 0.999
2024-11-26 00:08:27,039 INFO: Network [HAT] is created.
2024-11-26 00:08:27,366 INFO: Loading HAT model from ./experiments/pretrained_models/Real_HAT_GAN_SRx4.pth, with param key: [params_ema].
2024-11-26 00:08:27,491 INFO: Network [UNetDiscriminatorSN] is created.
2024-11-26 00:08:27,495 INFO: Network: UNetDiscriminatorSN, with parameters: 4,376,897
2024-11-26 00:08:27,496 INFO: UNetDiscriminatorSN(
  (conv0): Conv2d(3, 64, kernel_size=(3, 3), stride=(1, 1), padding=(1, 1))
  (conv1): Conv2d(64, 128, kernel_size=(4, 4), stride=(2, 2), padding=(1, 1), bias=False)
  (conv2): Conv2d(128, 256, kernel_size=(4, 4), stride=(2, 2), padding=(1, 1), bias=False)
  (conv3): Conv2d(256, 512, kernel_size=(4, 4), stride=(2, 2), padding=(1, 1), bias=False)
  (conv4): Conv2d(512, 256, kernel_size=(3, 3), stride=(1, 1), padding=(1, 1), bias=False)
  (conv5): Conv2d(256, 128, kernel_size=(3, 3), stride=(1, 1), padding=(1, 1), bias=False)
  (conv6): Conv2d(128, 64, kernel_size=(3, 3), stride=(1, 1), padding=(1, 1), bias=False)
  (conv7): Conv2d(64, 64, kernel_size=(3, 3), stride=(1, 1), padding=(1, 1), bias=False)
  (conv8): Conv2d(64, 64, kernel_size=(3, 3), stride=(1, 1), padding=(1, 1), bias=False)
  (conv9): Conv2d(64, 1, kernel_size=(3, 3), stride=(1, 1), padding=(1, 1))
)
2024-11-26 00:08:27,499 INFO: Loss [L1Loss] is created.
/global/D1/homes/s4nyam/srhat/srhat_env/lib/python3.10/site-packages/torchvision/models/_utils.py:208: UserWarning: The parameter 'pretrained' is deprecated since 0.13 and may be removed in the future, please use 'weights' instead.
  warnings.warn(
/global/D1/homes/s4nyam/srhat/srhat
…
